checkpoints_new/checkpoint_wind.pth (torch, 7716 bytes, 15 tensors)

lstm_layers.0.weight_ih_l0 f4 [4, 2]
00000000: 3331 83c0 dbf3 24c0 64ee 2a3f 6813 043f
00000010: 859d 35c0 33ff c9bf bc03 56c0 7853 28c0
-4.099756 -2.5773838 0.66770005 0.5159211 -2.8377392 -1.5781006 -3.343978 -2.6300945

lstm_layers.0.weight_hh_l0 f4 [4, 1]
00000000: e004 3d3e da45 523f 18b3 3a3e c0ed 1fbe
0.18458891 0.82137835 0.18232381 -0.15618038

lstm_layers.0.bias_ih_l0 f4 [4]
00000000: ade0 8bc0 309b 013e 2a35 04c0 565e 73c0
-4.3711762 0.12656856 -2.0657449 -3.8026328

lstm_layers.0.bias_hh_l0 f4 [4]
00000000: 4aa8 afc0 1682 7a3f 640c 18c0 9ccc 7bc0
-5.489293 0.97854745 -2.3757563 -3.9343634

output_layer.weight f4 [1, 3]
00000000: 1d1e 06c0 fdc8 9e3f 0977 cd3f
-2.095588 1.2405087 1.6051952

exp_avg f4 [4, 2]
00000000: fb35 4332 410b f631 0000 0000 0000 0000
00000010: 6c73 86aa a9d2 b1aa 5432 4332 4307 f631
1.1362768e-08 7.1608217e-09 0.0 0.0 -2.3883272e-13 -3.158769e-13 1.1361937e-08 7.160368e-09

exp_avg_sq f4 [4, 2]
00000000: c86e 032e 751e 1e2e 0000 0000 0000 0000
00000010: 8763 9c2d fe9b b92e c0cc 7d2e 8870 f02e
2.9884345e-11 3.5952092e-11 0.0 0.0 1.7779346e-11 8.440536e-11 5.7707394e-11 1.0933926e-10

exp_avg f4 [4, 1]
00000000: 0000 0000 0000 0000 0000 0000 0000 0000
0.0 0.0 0.0 0.0

exp_avg_sq f4 [4, 1]
00000000: 0000 0000 0000 0000 0000 0000 0000 0000
0.0 0.0 0.0 0.0

exp_avg f4 [4]
00000000: 9792 d532 0000 0000 3006 532c 6e94 d532
2.4863125e-08 0.0 2.9988338e-12 2.4863962e-08

exp_avg_sq f4 [4]
00000000: cbc1 ab2f 0000 0000 8410 052f 2886 2f30
3.1242417e-10 0.0 1.2102147e-10 6.3855277e-10

exp_avg f4 [4]
00000000: 9792 d532 0000 0000 3006 532c 6e94 d532
2.4863125e-08 0.0 2.9988338e-12 2.4863962e-08

exp_avg_sq f4 [4]
00000000: cbc1 ab2f 0000 0000 8410 052f 2886 2f30
3.1242417e-10 0.0 1.2102147e-10 6.3855277e-10

exp_avg f4 [1, 3]
00000000: de2e b141 9b9a 32c0 4f09 8532
22.147884 -2.7906864 1.548747e-08

exp_avg_sq f4 [1, 3]
00000000: 8596 9e44 fb9f 8d44 18bd 6833
1268.7037 1132.9994 5.418869e-08
