checkpoints_base/checkpoint_epoch_10.pth (torch, 71228 bytes, 63 tensors)

lstm.weight_ih_l0 f4 [40, 2]
000000 fb 83 1e c0 69 96 1f c0 bc e5 f0 bf ae a1 f4 bf
       -2.4768054 -2.4935553 -1.8820109 -1.9111841
000010 d6 85 28 40 53 3c 37 40 ab 99 14 c0 91 a9 1e c0
       2.6331687 2.863057 -2.3218791 -2.4790995
000020 23 9a 23 c0 83 4f 2a c0 86 79 2b c0 63 95 3a c0
       -2.5562828 -2.661103 -2.6792922 -2.9153678
000030 ba 22 24 c0 56 58 1e c0 27 ea 11 c0 be 57 ff bf
       -2.5646195 -2.4741416 -2.2799165 -1.9948652
000040 cf c6 09 c0 57 4c 10 c0 a5 1e ec bf ec 7f 06 c0
       -2.1527593 -2.2546594 -1.8446852 -2.1015577
000050 14 6d 14 be 28 5e 37 3e aa f2 74 3e 0a e6 7b 3e
       -0.14494735 0.17907012 0.23920694 0.24599472
000060 2c d8 73 be 0f db 9d be d0 3f 31 bd 0a 7b 17 3e
       -0.23812932 -0.3083119 -0.043273747 0.1479303
000070 04 a8 5e be 51 fc 7c be ea 70 7d 3e ee 75 0a 3e
       -0.2174378 -0.24705626 0.24750105 0.13521549
000080 6a 4a d1 bd 5a 7a 8c bd 88 6a b5 3d 1e 8d 46 3e
       -0.102192715 -0.06859274 0.0885821 0.1938977
000090 40 70 aa 3b f8 f4 46 be 8f 05 9a 3e 54 fb 2d be
       0.0052013695 -0.19429386 0.30082366 -0.16990405
0000a0 e6 28 03 40 e8 2b e6 3f ad 58 f4 3e f6 c6 05 c0
       2.0493712 1.7982149 0.47723904 -2.0902686
0000b0 c2 43 2f 40 7b be 2f 40 9d 12 e8 bf d7 82 6e 3e
       2.7385106 2.746001 -1.813068 0.23292099
0000c0 f3 ac 14 40 e7 d3 da 3f 93 0f 0d 40 7f 54 07 40
       2.323056 1.7095917 2.2040756 2.1145322
0000d0 e4 9b 04 40 76 b4 fa 3f c2 e2 cb 3f a3 02 09 c0
       2.0720148 1.9586322 1.5928576 -2.140786
0000e0 da 1f 0c 40 26 82 b0 3f 31 3b ea be 35 23 1c 40
       2.189444 1.3789718 -0.45748284 2.4396489
0000f0 41 37 0d c0 6f 44 26 c0 4b ca ed bf c7 4e ec bf
       -2.2064974 -2.5979269 -1.857736 -1.8461541
000100 00 bf 35 40 27 a0 2a 40 6b 80 f7 bf 85 2b 16 c0
       2.8397827 2.666025 -1.9336065 -2.3464062
000110 46 0b 1b c0 04 1d 38 c0 7c 8c 1c c0 01 e4 2e c0
       -2.422563 -2.876771 -2.4460745 -2.7326663
000120 d7 f4 14 c0 39 52 0b c0 6f 19 f4 bf 14 d9 17 c0
       -2.3274438 -2.1768935 -1.9070262 -2.3726244
000130 97 66 07 c0 2e 76 24 c0 74 ee 0f c0 6f 36 1b c0
       -2.1156366 -2.569713 -2.248929 -2.4251974

lstm.weight_hh_l0 f4 [40, 10]
000000 b0 a6 b5 bc 4a 6a 57 3e 00 d8 0a 3c 80 29 9f bc
       -0.02217421 0.2103664 0.00847435 -0.019428968
000010 70 56 b2 bc 00 b5 01 3b 03 53 91 3e e0 db 47 3d
       -0.021769732 0.0019791722 0.28383645 0.048793674
000020 00 69 3a bc 80 9b c0 bd ac 7d 80 be 95 4b 8b be
       -0.011377573 -0.09404659 -0.2509588 -0.27206102
000030 f0 ae 38 bd 0c b2 8e be f2 96 92 bd b8 2b e4 3d
       -0.04508871 -0.27870214 -0.07157697 0.11141151
000040 cb e3 93 3e 98 0b 36 3d 8f 6a 83 be b8 04 25 bd
       0.2888473 0.04444465 -0.25667235 -0.040287703
000050 bc 0c 82 be c0 e8 03 3c 9c 5d d3 3d 16 cb 70 3e
       -0.2540034 0.008051097 0.10320589 0.23514971
000060 e0 44 33 bc 80 03 60 3b 54 f5 93 3d 2a 9c 9c bd
       -0.010941714 0.0034181774 0.07224527 -0.076469734
000070 0c b8 fe 3d 42 7c 61 be 08 6f 3f 3d 26 f2 7b be
       0.12437448 -0.22020057 0.046736747 -0.24604091
000080 0e 2c 63 3e 40 ea 8c bb 09 87 91 3e 40 ed 68 3d
       0.22184774 -0.0043003857 0.28423336 0.056866884
000090 18 ee 45 bd 70 f5 b5 bd e0 1e 07 bc 43 c8 95 3e
       -0.048322767 -0.08884704 -0.008247107 0.2925435
0000a0 88 04 b2 3d c2 e7 6b 3e 9b f5 8c 3e 60 a7 d1 bc
       0.086922705 0.23037627 0.27531132 -0.025592506
0000b0 06 99 6f 3e ee a8 8f bd 08 57 6d be 00 07 8f 3d
       0.23398218 -0.07014643 -0.23177731 0.06983757
0000c0 68 67 05 3e a0 82 52 bc 29 41 07 be 74 39 9d bd
       0.13027728 -0.012848526 -0.1320845 -0.07676974
0000d0 99 c9 93 be 48 79 1c 3e 3a ab 6d 3e 75 14 85 3e
       -0.28864744 0.1528064 0.23209849 0.2599217
0000e0 40 4e 94 3c 64 58 9f bd fd c7 89 3e 67 4d 12 be
       0.018103719 -0.07780531 0.2691039 -0.14287339
0000f0 bf 7a 8a 3e 18 fa 60 bd 42 42 b6 bd e4 78 48 be
       0.27046773 -0.054926008 -0.088993564 -0.19577366
000100 10 88 2f be 78 5d 71 bd 0d e8 82 be e8 f2 22 3d
       -0.17141747 -0.05892703 -0.25567666 0.039782435
000110 82 fd 81 be ae 85 3a 3e de 80 05 3e 91 18 98 3e
       -0.25388724 0.18215057 0.1303744 0.29706243
000120 32 3a 6e be 9a af 79 be fe 49 da bd 1d fe 08 be
       -0.23264387 -0.24383393 -0.10658644 -0.13378187
000130 e6 9b 3e 3e 96 ff 51 3e d6 80 1a 3e 4c c9 d1 3d
       0.18614158 0.20507655 0.1508821 0.102434725
000140 29 c7 92 3e f9 d5 80 3e f0 5d 69 bd 80 a4 2a bd
       0.28667572 0.25163248 -0.05697435 -0.041660786
000150 22 67 47 3e c8 8e c2 3d c0 19 80 3b 8d 2b 8b 3e
       0.19472936 0.094998896 0.0039093196 0.27181664
000160 e8 0d ea 3d 2f 12 0c be 84 25 12 3e b9 96 9d be
       0.11428434 -0.13678811 0.14272124 -0.30779055
000170 72 39 06 be f2 40 53 be b9 9f 66 be de 31 16 be
       -0.13107851 -0.20630243 -0.22521867 -0.1466746
000180 08 3f 92 3d 9b 17 94 3e f6 5d 66 be b0 0f e2 bc
       0.071409285 0.2892426 -0.22496781 -0.027595371
000190 9a ec 64 3e 3c 06 85 3d 70 c8 af 3d f1 18 88 3e
       0.22355881 0.0649533 0.08583152 0.2658153
0001a0 ea 43 7a be 01 05 90 3e 9e a7 a0 bd 09 b8 8f 3e
       -0.2443997 0.28128818 -0.078444704 0.28070095
0001b0 e4 22 9e 3d 10 56 01 3e a0 46 c5 bd 60 52 cd bc
       0.077214986 0.12630486 -0.09632611 -0.025063694
0001c0 26 07 53 be 20 00 60 3d fb 2d 93 be 0b f9 15 be
       -0.20608196 0.05468762 -0.28746018 -0.14645784
0001d0 a0 70 4d 3d 48 0a 07 3d d4 8f 1e 3e 70 b3 88 bc
       0.050156236 0.03296879 0.15484554 -0.016687125
0001e0 78 23 9a 3d f0 9e 74 be b2 47 36 be d8 c0 1d 3d
       0.075262964 -0.23888755 -0.17800787 0.03851399
0001f0 71 a0 8b 3e 5c 98 e7 bd 42 e6 63 3e 00 e6 91 3a
       0.27270845 -0.11308357 0.22255805 0.0011131167
000200 1f 39 8e be d8 ba 7c be 0f fc 4f be d8 18 77 3d
       -0.27777955 -0.2468065 -0.20310996 0.060326427
000210 2a 18 68 3e 42 0f 01 3e 1e 92 d5 bd 66 82 4e 3e
       0.22665468 0.12603477 -0.1042826 0.2016693
000220 c7 01 02 be ea a8 4f 3e 56 a6 36 3e b0 48 18 3e
       -0.1269599 0.2027928 0.1783689 0.14871478
000230 0e 5d 60 3e d6 11 a6 bd 90 61 79 bd de 2b ea bd
       0.21910498 -0.08108871 -0.06088406 -0.11434148
000240 c0 4d 4a bc c5 a7 a1 3e 70 eb 6a be a6 8e 4a 3e
       -0.012347639 0.3157331 -0.22941375 0.19780979
000250 16 12 2e 3e 42 d7 57 3e 0a 26 45 3e 98 4e d3 bd
       0.16999087 0.21078208 0.19252792 -0.10317725
000260 34 62 a0 bd d1 90 8a 3e 81 66 9a be c8 7a b2 3d
       -0.07831231 0.2706361 -0.3015633 0.08714825
000270 aa 48 58 3e ac 49 bc bd aa da b9 bd a8 ef 3f 3d
       0.21121469 -0.09193739 -0.0907491 0.046859413
000280 0a 8d 08 3e f6 4e 94 be e0 c2 39 3d 88 9f f7 3d
       0.13335052 -0.28966492 0.045351863 0.12090975
000290 40 37 31 bc cc 3f b2 3d 14 44 3b be 30 12 cb 3c
       -0.010816395 0.087035745 -0.18287688 0.024788946
0002a0 90 fc 64 3d 74 c2 e3 bd ab 4e a1 be 30 cf 10 3d
       0.055904925 -0.11121073 -0.3150533 0.03535384
0002b0 b8 09 84 be 56 66 76 be 80 2e 20 3b b0 06 1f be
       -0.25788665 -0.24062476 0.0024441779 -0.15529895
0002c0 70 06 75 be 3a e0 5c 3e 80 80 d0 3c b6 73 5e be
       -0.23928237 0.2156991 0.025451899 -0.21723828
0002d0 06 f9 d3 bd 7b 30 88 3e 64 d3 c4 3d 46 ff 74 3e
       -0.10350232 0.26599488 0.09610632 0.23925504
0002e0 f0 e2 5e bd 26 06 72 3e ed f6 90 3e 00 2a a8 ba
       -0.054415643 0.23635158 0.2831339 -0.00128299
0002f0 c6 a7 3c 3e 60 14 1f be 74 72 ef 3d 06 f3 16 be
       0.18423375 -0.15535116 0.11691752 -0.14741144
000300 2e 46 5d 3e 06 e0 a0 be a0 29 69 3d 30 c4 0d be
       0.21608803 -0.31420916 0.056924462 -0.13844371
000310 40 3e 42 bd dc cb df 3d a0 57 89 3c 70 e4 0b bd
       -0.047422647 0.10927555 0.016765416 -0.0341534
000320 06 ac 5d 3e f8 88 62 be 4b cb 6e be d0 28 0a 3d
       0.21647653 -0.22122562 -0.23319738 0.033730328
000330 24 f9 5d be ce 97 77 be 5e c4 74 3e c0 02 1d 3e
       -0.21677071 -0.24179003 0.23903033 0.1533308
000340 7c d4 9d 3d a2 9f fb bd 51 28 0d be 08 a5 04 3e
       0.07706544 -0.12286307 -0.1378491 0.1295358
000350 52 1b dc bd 94 03 12 3e 56 b0 7e be c0 80 74 bc
       -0.107473984 0.14259177 -0.24871954 -0.0149232745
000360 0e 9b 69 3e 80 d5 c8 3d 50 80 77 3d c6 fa 7b 3e
       0.22813055 0.09806347 0.060425103 0.24607381
000370 30 f2 5d 3d d8 5e 74 be fb 2c 17 be a0 03 f0 3c
       0.054186046 -0.23864305 -0.14763252 0.029298604
000380 63 b5 8e 3e bc 04 39 be 35 4b 3a be ad 08 80 be
       0.27872762 -0.18068212 -0.18192752 -0.2500662
000390 1b 9f 9f be 68 8b 74 3d d2 8a 63 3e 60 1e d7 3d
       -0.31176075 0.05970326 0.22220924 0.105038404
0003a0 b2 63 f8 bd c5 f4 9f be fb 3f 9b 3e c0 8c ce 3b
       -0.1212839 -0.31241432 0.3032225 0.0063034
0003b0 00 66 82 3c 92 91 b5 bd c0 e6 81 bb b8 a9 f9 bd
       0.015917778 -0.08865656 -0.003964275 -0.121905744
0003c0 30 8d e5 3c 8f 0f 8a 3e 59 29 23 be c2 f2 64 3e
       0.028021425 0.26964995 -0.15933742 0.2235823
0003d0 18 64 62 bd 20 27 48 3d e0 f3 44 bc ec 98 6c be
       -0.055271238 0.048865438 -0.012021035 -0.2310521
0003e0 2f 1d 97 be 60 2f 77 bc cc ac d2 3d f8 db 98 be
       -0.29514453 -0.015086979 0.10286865 -0.29855323
0003f0 58 46 45 be 26 51 73 3e c0 ba 37 3e e0 7f 5a bd
       -0.19265115 0.23761424 0.17942333 -0.053344607

lstm.bias_ih_l0 f4 [40]
000000 06 46 24 c0 be e5 08 c0 1a d9 20 40 d7 95 21 c0
       -2.566774 -2.1390224 2.5132508 -2.5247705
000010 ae 22 18 c0 af 45 11 c0 f8 ed 09 c0 f6 fa 0a c0
       -2.3771167 -2.2698781 -2.1551495 -2.1715674
000020 ff c8 0c c0 cb 74 13 c0 76 34 9b be 58 16 e0 3d
       -2.1997678 -2.3040035 -0.30313462 0.10941762
000030 1b 1e 8d be 00 ff e3 3b 32 fb ea bd 9b 10 10 be
       -0.2756203 0.0069578886 -0.11473693 -0.14068834
000040 b0 7a d3 3d 04 e6 f2 3d 76 7a 84 be 80 a3 36 3c
       0.10326135 0.11860278 -0.2587468 0.01114738
000050 68 d0 12 40 41 e5 78 3f ee 9a 21 40 60 79 db bf
       2.29397 0.97224814 2.5250812 -1.7146416
000060 29 de f8 3f 78 30 14 40 60 06 0b 40 a5 d2 be 3f
       1.9442798 2.3154583 2.172264 1.4908034
000070 d9 4a e5 3f 46 73 1c bf b8 1c 1f c0 a3 0a f5 bf
       1.7913467 -0.61113393 -2.4861279 -1.9143871
000080 5e dd 28 40 7f 17 f8 bf 9e b6 2f c0 f9 a9 0f c0
       2.6385112 -1.938217 -2.745521 -2.2447493
000090 f5 ab 23 c0 43 99 0a c0 77 99 0b c0 ae 3f 17 c0
       -2.5573704 -2.1656044 -2.1812418 -2.3632617

lstm.bias_hh_l0 f4 [40]
000000 c9 9b 23 c0 a2 7c 18 c0 8b 92 16 40 fa dc 0f c0
       -2.5563834 -2.382607 2.3526943 -2.2478623
000010 8b 4b 28 c0 14 20 12 c0 aa e2 0f c0 0a 0a 05 c0
       -2.6296108 -2.283208 -2.2482095 -2.0787377
000020 c2 dc 0a c0 a9 ff 04 c0 60 aa e2 3d ae 5b a9 bd
       -2.169724 -2.0781043 0.11067653 -0.0826944
000030 48 cf 68 be 94 94 c0 3d 87 0d 17 be 80 0c 00 3d
       -0.22735322 0.09403339 -0.14751254 0.03126192
000040 78 89 4a bd 89 af 6e be 63 9e 27 be 12 4a 4f 3e
       -0.049447507 -0.23309149 -0.16369013 0.202431
000050 6f 2e 0a 40 b0 4d 82 3f ba 85 3a 40 59 4e f4 bf
       2.159084 1.0179958 2.914412 -1.908641
000060 3d c6 09 40 da fc 02 40 3e 13 16 40 20 57 b8 3f
       2.1527245 2.0466828 2.3449244 1.4401588
000070 78 d2 0f 40 1c c2 22 bf b1 6f 24 c0 36 b0 15 c0
       2.247221 -0.6357744 -2.569317 -2.33888
000080 e9 0f 21 40 3e 92 15 c0 95 d1 25 c0 ec 26 1b c0
       2.516596 -2.337051 -2.5909169 -2.4242506
000090 1b d0 16 c0 26 41 18 c0 87 92 1f c0 e0 a9 17 c0
       -2.3564517 -2.3789763 -2.4933183 -2.3697433

lstm.weight_ih_l1 f4 [40, 10]
000000 37 0a 16 be a3 f2 fd bf 47 b3 56 40 12 b5 0b 40
       -0.14652334 -1.9839672 3.3546922 2.1829267
000010 cc bf b7 be ad 57 39 3e 75 81 bf 3f e0 ea 0e c0
       -0.35888517 0.18099852 1.4961382 -2.2330856
000020 48 98 da bf 55 15 14 40 c2 e3 11 40 81 7b 07 40
       -1.7077723 2.313802 2.2795262 2.116913
000030 64 f7 35 c0 63 9f 0e c0 45 8c 16 40 37 9a f3 3f
       -2.8432245 -2.2284782 2.3523114 1.9031438
000040 28 7c 0c 40 1e 32 0d 40 de 0e 1d 40 cf 79 27 c0
       2.195078 2.206184 2.4540324 -2.6168096
000050 af db f1 3f d1 aa fb 3f 08 90 38 c0 9c 65 01 c0
       1.8895167 1.9661504 -2.883791 -2.0218267
000060 ed 93 06 40 b5 70 05 40 04 b1 f5 3f a3 9a 0d 40
       2.1027787 2.085004 1.9194646 2.2125633
000070 23 3a 01 40 20 d1 1a c0 df da 07 40 ac e2 0c 40
       2.0191734 -2.419014 2.1227338 2.201335
000080 ef d0 36 c0 36 76 16 c0 8d 22 0b 40 47 83 0f 40
       -2.8565023 -2.350965 2.1739838 2.2423875
000090 91 bb 12 40 80 41 18 40 e3 8e 05 40 7c 58 19 c0
       2.2926981 2.3789978 2.086846 -2.3960257
0000a0 72 2a 11 40 f6 25 0e 40 b8 25 2a c0 3e 23 1f c0
       2.2682157 2.221067 -2.6585522 -2.486526
0000b0 33 53 2f 40 d0 f0 20 40 94 26 12 40 4a 5e 2c 40
       2.739453 2.514698 2.2836046 2.693255
0000c0 fc 96 1f 40 48 ae 0e c0 4f 7f 19 40 7b 5f 1a 40
       2.4935904 -2.2293873 2.3983953 2.4120777
0000d0 ec d4 3c c0 6f 1d 0e c0 15 87 16 40 52 77 ef 3f
       -2.9504957 -2.2205465 2.3519948 1.8708289
0000e0 fb 79 02 40 09 c7 05 40 d9 63 fa 3f 89 e5 19 c0
       2.038695 2.0902731 1.9561721 -2.4046347
0000f0 93 dc f1 3f f4 ce 11 40 1e 4d 38 c0 40 1d 08 c0
       1.8895439 2.2782564 -2.8797069 -2.1267853
000100 88 f2 18 40 d7 48 fe 3f 49 0d 00 40 cd 45 17 40
       2.389803 1.9865979 2.0008109 2.3636353
000110 35 bb 00 40 85 45 12 c0 5a 7b 1d 40 ed 1d 0e 40
       2.0114262 -2.2854931 2.4606538 2.2205765
000120 94 c4 04 c0 b5 ba 10 c0 2b 66 11 40 0e ca f3 3f
       -2.0744982 -2.2613957 2.2718608 1.9046037
000130 cd 04 f4 3f bd 2e ea 3f 13 9c 12 40 ad 8b 0a c0
       1.9063965 1.8295513 2.290776 -2.1647751
000140 7a c0 fb 3f 51 8a ff 3f 5e bd 28 c0 eb f0 14 c0
       1.9668114 1.9964086 -2.636558 -2.3272045
000150 f5 fd e5 3f 25 0b ea 3f 21 38 eb 3f 80 e7 01 40
       1.7968127 1.8284651 1.8376504 2.0297546
000160 f4 cb eb 3f d7 0a 13 c0 c5 b5 18 40 04 7c 07 40
       1.8421617 -2.2975366 2.3860943 2.1169443
000170 91 06 3d c0 0c dc e9 bf 8e d6 06 40 43 08 10 40
       -2.9535258 -1.8270278 2.1068454 2.2505043
000180 0f 56 f1 3f f8 b3 1a 40 3b 94 01 40 56 46 0e c0
       1.8854388 2.4172344 2.0246723 -2.223043
000190 b7 fa 92 3e 2a 15 90 bd 01 47 29 be ba 69 5a 3e
       0.28706905 -0.07035287 -0.16530992 0.21329394
0001a0 da 1c 6a 3e d0 15 e0 bd 28 1a 32 bd 5c 82 94 be
       0.22862568 -0.109416604 -0.043481976 -0.29005706
0001b0 15 87 a1 be 9e b5 b8 bd 92 fb 06 be ee 65 10 3e
       -0.31548372 -0.09019016 -0.13181904 0.14101383
0001c0 5c ec 96 3d 0e 70 e0 bd aa e6 2b 3e 81 d2 8c 3e
       0.07369301 -0.10958873 0.1678721 0.27504352
0001d0 7e 5c 6c be 20 c6 72 bc e8 b9 74 3d 18 e6 53 bd
       -0.23082158 -0.0148177445 0.059747607 -0.051733106
0001e0 23 0a 9b 3e b0 fb e3 bd 1c 87 6a be 31 58 08 be
       0.3028117 -0.1113199 -0.22903103 -0.13314892
0001f0 d2 06 3f 3e e5 c8 94 be 40 24 9d bb 68 15 5e 3d
       0.18654945 -0.2905952 -0.004795581 0.054219633
000200 70 1d c0 3d 4d d5 93 3e 20 df e6 3c 9c 31 e5 3d
       0.09380615 0.28873673 0.028182566 0.11191103
000210 1e 81 27 3e 56 9b 33 3e 46 38 44 3e 00 2d e0 3a
       0.16357848 0.17539725 0.19162092 0.0017103255
000220 bd 71 93 3e 69 55 88 3e 09 20 83 3e 34 80 9d 3d
       0.28797713 0.26627663 0.25610378 0.076904684
000230 b5 b8 1c be b2 04 9c bd be 99 62 3e 78 0a eb 3d
       -0.15304835 -0.07618083 0.2212896 0.11476606
000240 49 6d 51 be 07 9e 6d be 20 b8 86 bc b2 36 79 be
       -0.20451845 -0.23204814 -0.01644522 -0.24337271
000250 00 eb 48 bb 11 88 9c be 88 bf 15 3e 02 a6 3a 3e
       -0.003065765 -0.3057256 0.14623845 0.1822739
000260 a1 a7 3c be b0 3e 06 3d df 89 8b 3e 1c a7 db 3d
       -0.1842332 0.032774627 0.27253625 0.10725233
000270 26 93 ae bd 38 0a 5b bd 00 fd d8 3a c1 6f 4c be
       -0.0852416 -0.053476542 0.0016554892 -0.19964506
000280 4d 9b 8d 3e aa 8a 51 be 70 ab 40 be f7 0e 89 3e
       0.27657548 -0.20463052 -0.18815398 0.2676923
000290 86 40 bd bd 42 36 78 3e 55 66 90 3e 6a bf 50 3e
       -0.092408225 0.24239448 0.28203073 0.20385519
0002a0 b8 03 65 3d 6f 34 92 3e 10 75 86 3c 32 5b 06 3e
       0.05591175 0.2855563 0.016413242 0.13120726
0002b0 8d 51 8f 3e 83 00 9d 3e 00 04 d6 ba 48 88 3d bd
       0.27991906 0.30664453 -0.0016328096 -0.046272546
0002c0 5e 4b 5d 3e ff 8f 86 3e 0e e7 7c 3e 19 7c 8c 3e
       0.21610782 0.26281735 0.24697515 0.2743843
0002d0 69 9a 75 be 50 08 48 be 5a d2 01 3e 02 50 b1 bd
       -0.23984684 -0.19534421 0.12677899 -0.086578384
0002e0 51 e0 90 3e 67 8e 7d be 1e 52 96 be 14 80 cf bd
       0.2829614 -0.24761353 -0.29359525 -0.10131851
0002f0 00 69 6a bd f2 92 04 be 92 db 68 3e 52 16 6a 3e
       -0.057229042 -0.1294668 0.2274001 0.22860077
000300 83 78 9a 3e 00 42 a3 ba 44 0f c2 3d 50 b3 22 3d
       0.30170068 -0.0012455583 0.09475568 0.039721787
000310 f3 7c 87 be 84 be 25 3e 79 22 86 be 04 d4 75 be
       -0.26462516 0.16185957 -0.26198176 -0.24006659
000320 c4 70 83 3f 3b 56 39 40 fd 20 13 c0 12 b0 22 c0
       1.0268788 2.895888 -2.2988884 -2.5419965
000330 43 5c e7 3f 33 c0 87 3f 17 2e 65 bf 1a 62 2d 40
       1.8075031 1.060553 -0.8952345 2.7091126
000340 fb c3 0e 40 40 76 34 c0 a8 1d 16 c0 47 6b 01 c0
       2.2307117 -2.8197174 -2.34556 -2.0221727
000350 1d a4 f9 bf 62 2c 0b 40 eb f5 03 c0 30 90 11 c0
       -1.9503208 2.174584 -2.0618846 -2.2744255
000360 f8 f8 2f c0 86 51 0f c0 dd 7f 0b c0 d9 c7 08 40
       -2.7495708 -2.2393508 -2.1796792 2.1371977
000370 5d 95 1c c0 cf 17 05 c0 cf 00 d6 bf b0 21 1a 40
       -2.4466164 -2.0795782 -1.6718997 2.4083061
000380 78 60 1a c0 24 04 07 c0 73 b8 14 c0 3d 3c fb bf
       -2.412138 -2.1096277 -2.323758 -1.9627758
000390 14 81 13 c0 6e c5 00 40 79 16 14 c0 e6 b8 1d c0
       -2.3047533 2.0120502 -2.3138716 -2.4644103
0003a0 62 6f 88 bf 08 5c 14 40 f8 4c 0c c0 3b be 0e c0
       -1.0658991 2.3181171 -2.1921978 -2.2303607
0003b0 10 99 05 c0 33 ad 0f c0 f2 34 12 c0 7c 89 16 40
       -2.0874672 -2.2449462 -2.2844815 2.3521414
0003c0 cf 8b 08 c0 e3 f1 1b c0 a9 f4 95 3f 43 c8 01 40
       -2.1335332 -2.4366386 1.1715289 2.027848
0003d0 cf c3 15 c0 b9 81 06 c0 3e 79 21 c0 9e 30 24 c0
       -2.3400762 -2.1016676 -2.523025 -2.5654674
0003e0 b7 9f 09 c0 55 ea 1c 40 ca 07 00 c0 d5 d3 e6 bf
       -2.1503732 2.4518025 -2.0004754 -1.8033396
0003f0 be 2c da bf 66 e6 fc 3f 10 96 06 c0 9f 2f 0e c0
       -1.7044904 1.9757812 -2.102909 -2.2216566

lstm.weight_hh_l1 f4 [40, 10]
000000 28 f3 7e 3d 1c ac f2 3d 0f 53 89 3e 18 f8 1b bd
       0.06224361 0.118492335 0.2682118 -0.038078398
000010 c4 1c 1d 3e 98 44 70 3d 5b cb 82 3e 16 f5 48 3e
       0.15343004 0.058659166 0.25545773 0.19624743
000020 c2 46 cb bd a6 fa 7d 3e a4 63 59 be 54 6b 47 be
       -0.09925605 0.24802646 -0.21229416 -0.19474536
000030 60 ad 65 3c 5b bd 28 be d2 c0 11 3e 18 44 97 be
       0.014018387 -0.16478483 0.14233711 -0.2954414
000040 40 a1 2f 3d f7 f0 94 be e8 0e 51 3d 00 03 e2 3b
       0.04287839 -0.29090092 0.051039606 0.0068973303
000050 22 fc 8e bd 07 c6 0f be 30 ce 24 bd b4 b5 16 be
       -0.06981684 -0.14040385 -0.0402357 -0.14717752
000060 07 6d 94 be 7e 6b ad bd e4 c0 bf 3d aa bc e0 bd
       -0.2898943 -0.08467768 0.09362963 -0.10973485
000070 a0 f9 29 3e d9 90 5f be d0 33 86 3d de c7 38 3e
       0.1659913 -0.21832599 0.06552851 0.18044993
000080 4a aa 50 be 20 0d ae 3c ab 0a a1 be 1d 8e 9e 3e
       -0.2037746 0.021246493 -0.31453452 0.309678
000090 a0 ae f4 3d 9d 62 9c be 74 81 9a be d4 d0 88 be
       0.119473696 -0.30543986 -0.3017689 -0.26721823
0000a0 96 ce ac bd d7 ca 81 3e b4 53 6d be f6 99 09 3e
       -0.08437841 0.25350067 -0.23176461 0.13437638
0000b0 8b 76 86 3e 48 eb 1f bd ea e7 50 be 02 09 57 3e
       0.26262316 -0.03904274 -0.20400968 0.2099953
0000c0 46 db 74 3e e9 1c 97 3e 90 d1 91 be c2 50 c5 bd
       0.23911771 0.29514244 -0.28480196 -0.09634544
0000d0 e8 c9 1a 3d 5a c9 03 be 6a 67 b9 bd 07 96 8b 3e
       0.03779021 -0.12869778 -0.09052928 0.272629
0000e0 46 ff b4 bd 5b 38 97 be ea bf 8c be 40 60 64 be
       -0.08837752 -0.29535183 -0.2749017 -0.22302341
0000f0 3c d9 ef bd c3 eb 89 3e 38 c0 78 bd e0 a2 85 3c
       -0.11711356 0.26937684 -0.06073019 0.016313016
000100 68 73 f2 3d e6 67 37 3e f2 77 ee bd e2 2c 0c 3e
       0.11838418 0.17910728 -0.116439715 0.13688996
000110 96 2a 6f 3e e2 28 99 bd f8 a9 4b bd ae ee 3e 3e
       0.23356089 -0.07478501 -0.04972264 0.18645737
000120 49 cc 0b be fe c4 40 be 59 3b a0 3e 30 9f 0b 3e
       -0.13652147 -0.18825147 0.3129528 0.13634944
000130 ea 67 62 be 1b 13 8c 3e 40 85 9f be 18 50 02 bd
       -0.22109953 0.27358326 -0.3115635 -0.031814665
000140 c0 f4 5a 3d 06 84 5d 3e a2 bf 5b 3e 60 06 3a 3d
       0.053456068 0.21632394 0.21459821 0.045416236
000150 a8 34 7a 3d b3 75 8a be b9 fb 4f be d2 b3 5f be
       0.061085373 -0.27042922 -0.20310868 -0.2184594
000160 dc cf 70 be 93 eb 45 be 14 81 08 3e 99 62 0e be
       -0.23516792 -0.19328146 0.1333049 -0.139048
000170 ee f3 7b 3e fd 95 92 3e 56 b8 08 be 14 f6 9f 3d
       0.2460477 0.28630057 -0.13351569 0.078106076
000180 c4 2b 8f be 60 a7 a6 bd c4 fa 67 be 12 e5 51 3e
       -0.27963078 -0.08137393 -0.22654253 0.2049754
000190 a5 81 8c be 1e a5 cf bd b0 2b 6e bd fa 5c 55 3e
       -0.2744266 -0.101389155 -0.058147132 0.20836249
0001a0 88 d9 7d bd 56 d3 28 3e 55 8e 78 be 50 11 e7 3c
       -0.061975032 0.16486868 -0.24273045 0.028206497
0001b0 2d 10 3e be 20 53 30 3c 4d 18 92 3e fe 60 a3 bd
       -0.18560858 0.010762006 0.28534165 -0.07977484
0001c0 2e 26 51 3e 80 06 16 3b f7 8f 81 be c4 a9 33 3e
       0.2042472 0.0022892058 -0.2530515 0.17545229
0001d0 08 d8 ca 3d 78 e1 24 3e f7 00 95 be 00 78 15 3d
       0.09904486 0.16101635 -0.291023 0.036491394
0001e0 b1 e3 9d 3e 6a 2c 68 3e e8 30 fd bd 80 6e 80 3c
       0.30837777 0.22673193 -0.12362844 0.01567769
0001f0 82 90 0b be a8 6d 75 be b0 a0 55 be 77 87 8c be
       -0.13629344 -0.23967612 -0.20862079 -0.274471
000200 ba 7f 69 3e 1a 6a 54 3e 4e 48 7e be b8 e0 94 bd
       0.2280263 0.207436 -0.2483227 -0.07269424
000210 21 6b 2f be 67 cc 29 be f2 0f 15 be 54 34 b6 3d
       -0.1713071 -0.1658188 -0.14556864 0.088966995
000220 e2 b1 4b 3e c1 2d 78 be 86 53 7c 3e 40 56 4e 3c
       0.19892076 -0.24236204 0.24641237 0.012593806
000230 a8 46 71 be 24 23 98 3d 26 93 08 be d6 fd ef bd
       -0.2356211 0.074285775 -0.13337383 -0.11718337
000240 80 95 d4 bb d5 76 3c be b0 de 91 3d 84 b8 13 3e
       -0.0064875484 -0.18404706 0.071225524 0.14425856
000250 49 26 95 3e 88 d7 5d be 9e 90 46 3e 90 b2 97 3c
       0.29130772 -0.2166425 0.19391105 0.018517762
000260 d8 5f ec 3d 28 b3 fd bd 69 99 93 3e da 33 93 be
       0.11541718 -0.12387687 0.2882798 -0.28750497
000270 0a e7 70 3e 5a e2 71 3e 0a 13 61 3e 3e 8f 7b be
       0.23525634 0.23621503 0.21979919 -0.24566361
000280 2c e7 f5 3d 70 65 78 3d 88 cd 43 bd 05 44 8d be
       0.12006983 0.060643613 -0.04780343 -0.27590957
000290 30 58 8d 3d fd 98 86 be d4 e6 a2 3d e0 ae b3 bc
       0.06901586 -0.26288596 0.07954183 -0.021933973
0002a0 18 38 2d 3e d8 30 5c be 2a c9 b5 bd ea 62 7c be
       0.1691593 -0.21503007 -0.088762596 -0.24647108
0002b0 f0 13 79 bd 59 96 9b 3e 1b 9f 8e be e4 60 e3 bd
       -0.06081003 0.30388144 -0.27855763 -0.11102465
0002c0 d8 40 97 be d6 50 31 3e e3 5e 9e 3e d8 f0 70 3d
       -0.2954166 0.17315993 0.30931768 0.058823436
0002d0 ba d6 d6 bd 9d ea 99 3e b8 d5 d3 3d 8a 27 73 be
       -0.104901746 0.30061808 0.10343498 -0.23745552
0002e0 f4 38 9a be 90 80 47 be 6f 74 8a be 63 90 29 be
       -0.30121577 -0.19482636 -0.27041957 -0.16558985
0002f0 f9 6c 95 3e 63 03 9b be 9d 5c 9d 3e 70 52 c2 3d
       0.29184702 -0.3027602 0.3073472 0.0948838
000300 07 d4 87 3e ec ad f1 bd ae fe 66 3e 9e 33 0c 3e
       0.26528952 -0.11800751 0.2255809 0.13691565
000310 08 8e fc bd 96 af 33 3e 63 e1 7c be cc 5d f4 3d
       -0.12331778 0.1754745 -0.24695353 0.11931953
000320 ed 00 87 3e 8e b5 2b be f0 44 08 bd a0 9d e9 3d
       0.26367894 -0.16768476 -0.03326887 0.11407018
000330 70 2a c1 bc c4 e9 5a be 6e 28 65 3e 2f a4 65 be
       -0.023579806 -0.21378237 0.22378704 -0.22425912
000340 35 d4 81 3e a0 0b f4 bc 62 fe a7 bd ac e3 bb 3d
       0.25357214 -0.0297907 -0.082028165 0.09174284
000350 a8 96 59 bd b3 cd 1b be 58 a6 16 3d 0a 72 b7 bd
       -0.053122193 -0.15215187 0.03677973 -0.08957298
000360 8b 07 9a 3e b8 f5 3f bd 68 38 7f 3d c6 92 7a 3e
       0.3008388 -0.046865195 0.062309653 0.24470052
000370 10 d6 83 3c 31 1e 40 be be ac fb bd 42 92 96 be
       0.016093284 -0.18761517 -0.12288807 -0.2940846
000380 40 de db 3c ee 89 6e 3e 30 3f a4 3d 36 2e 6b 3e
       0.026839375 0.23294804 0.080198646 0.22966847
000390 f8 73 d0 bd 4e c6 7f 3e d8 f8 89 be 02 5d 9b be
       -0.10178369 0.24977991 -0.26947665 -0.30344397
0003a0 6e a6 23 3e 0b 2e 8f be e0 a0 25 3d c6 77 33 3e
       0.15981457 -0.27964815 0.040436625 0.17526159
0003b0 c4 4c f8 bd 96 cb 38 3e 26 fa 16 3e 3c 0d f0 3d
       -0.12124017 0.18046412 0.14743862 0.11721274
0003c0 f2 07 7b be 10 69 d4 bd 90 9d 8b 3c b0 0b 4a 3d
       -0.2451475 -0.103716016 0.017042905 0.049327552
0003d0 8b b7 98 3e d7 67 83 3e 17 b4 8f be 00 9e 02 bb
       0.29827532 0.2566516 -0.28067085 -0.00199306
0003e0 b6 1b e1 bd 32 1a 77 3e 40 e3 4c 3c f0 99 03 3e
       -0.109916136 0.24131086 0.0125053525 0.12851691
0003f0 6c 6c 4a be 86 90 6b 3e 8c d2 d2 3d a8 74 79 be
       -0.19767922 0.2300435 0.10294065 -0.24360907

lstm.bias_ih_l1 f4 [40]
000000 c7 aa 31 40 bf ea 27 c0 d9 ae 1a c0 14 24 1e c0
       2.7760484 -2.6237028 -2.4169219 -2.470952
000010 14 28 24 c0 26 e9 25 c0 9b bd 1c c0 c6 57 09 c0
       -2.5649462 -2.5923553 -2.4490726 -2.1459823
000020 95 2e 1e c0 5b 4b 13 c0 b8 c0 ca 3d 76 b1 2a be
       -2.4715931 -2.3014743 0.099000394 -0.16669258
000030 18 32 96 bd 9e a1 69 3e 97 02 87 3e 38 84 7c 3d
       -0.073337734 0.22815558 0.26369163 0.06164953
000040 20 80 75 be 15 88 93 3e 28 44 2b bd 75 75 05 be
       -0.23974657 0.2881476 -0.041813046 -0.13033088
000050 d7 66 2a c0 c1 ff c5 3f 1c c7 b1 3f 54 4e d2 3f
       -2.6625268 1.5468675 1.3888888 1.6430154
000060 f5 d3 11 40 19 50 e0 3f 54 a2 91 3d 00 60 c2 bc
       2.2785618 1.7524444 0.0711104 -0.023727417
000070 39 05 b2 bf 5f 59 bb bf 67 23 2d 40 75 4d 15 c0
       -1.3907844 -1.4636649 2.7052858 -2.3328526
000080 5b 75 0f c0 c7 5d 23 c0 14 bb 1f c0 1c 75 16 c0
       -2.2415378 -2.5525987 -2.4957933 -2.3508978
000090 c9 48 f7 bf 1d 56 0a c0 f5 5d 1f c0 4f 3f 19 c0
       -1.9319087 -2.161506 -2.4901097 -2.394489

lstm.bias_hh_l1 f4 [40]
000000 c7 e2 35 40 d7 33 1d c0 cb f8 1d c0 42 15 15 c0
       2.8419664 -2.456289 -2.46831 -2.3294225
000010 62 34 2a c0 3e ea 04 c0 fb 0e 05 c0 83 81 07 c0
       -2.6594472 -2.076797 -2.0790393 -2.1172798
000020 9b ef 02 c0 c2 68 0b c0 a5 ec 8f be cd cd 9f 3e
       -2.0458744 -2.178269 -0.28110233 0.312117
000030 92 0f a1 be e8 2f 1a bd 69 35 84 3e 12 fd 3f 3e
       -0.31457192 -0.037643343 0.25822 0.18748882
000040 c1 4c 02 be 58 9e 28 3e 80 62 d4 3d 4e 7f 2d be
       -0.12724592 0.16466653 0.1037035 -0.16943094
000050 90 cd 35 c0 74 9d fb 3f a5 ee b0 3f 19 b7 05 40
       -2.8406715 1.9657426 1.3822829 2.0893004
000060 a5 ec f1 3f 92 db bf 3f 96 a1 59 bd 1a 80 2c 3d
       1.8900343 1.4988883 -0.053132616 0.042114355
000070 cc 3d e8 bf c4 90 6d bf 04 5c 27 40 e6 26 21 c0
       -1.8143859 -0.9279902 2.6149912 -2.5179992
000080 62 4e 1b c0 3d 1d 09 c0 27 0d 3a c0 0f e6 11 c0
       -2.426659 -2.1424096 -2.9070528 -2.2796667
000090 b0 8b 02 c0 fc e4 08 c0 45 59 0a c0 4d 9a 0c c0
       -2.0397758 -2.138976 -2.1616986 -2.1969178

lstm.weight_ih_l2 f4 [40, 10]
000000 cc a5 3d 40 b1 82 0b 40 61 27 e9 3f 58 1d f7 3f
       2.9632444 2.1798518 1.8215142 1.930583
000010 3b 83 ed 3f 2d 6d ff 3f 1f 1e 0f c0 35 92 05 c0
       1.8555673 1.9955193 -2.2362134 -2.0870488
000020 b1 0f fe bf 12 d7 19 c0 02 e4 e8 bf f4 72 1f 40
       -1.9848539 -2.4037519 -1.8194582 2.4913912
000030 d6 c1 02 40 5d 0f 0a 40 c2 2b 28 40 be c3 08 40
       2.0430808 2.1571877 2.6276708 2.1369472
000040 78 b8 1e c0 94 c4 26 c0 c0 6d 17 c0 6d a8 20 c0
       -2.480009 -2.6057482 -2.3660736 -2.51028
000050 90 a4 24 40 2b af f8 3f ee ea 06 40 dd 37 02 40
       2.572544 1.9428457 2.108089 2.0346596
000060 1e 95 ec 3f ac 31 17 40 fc 93 10 c0 a8 dd 17 c0
       1.8483007 2.3624067 -2.2590322 -2.3729038
000070 00 aa 0f c0 72 d0 1b c0 ce 2e 38 c0 ea 11 a5 bf
       -2.244751 -2.4345975 -2.8778567 -1.2896092
000080 91 b2 0d c0 82 3a f7 bf 3b 76 ca 3e 49 bd 18 c0
       -2.2140238 -1.931473 0.39543328 -2.386553
000090 2a 73 0b 40 ed cb 06 40 55 da 16 40 2a b7 13 40
       2.178904 2.1061966 2.357076 2.3080544
0000a0 66 4c 26 40 cf cc 04 40 ab da f6 3f cf d8 fe 3f
       2.598413 2.0750005 1.9285482 1.9909915
0000b0 8b 91 0e 40 37 55 10 40 52 b7 0f c0 42 c3 14 c0
       2.2276332 2.255201 -2.245564 -2.3244176
0000c0 8b ac 07 c0 3b 64 04 c0 39 e2 50 c0 d7 40 87 bf
       -2.1199062 -2.0686176 -3.2638075 -1.0566663
0000d0 c2 54 e2 bf f1 b1 a1 bf b7 39 ce 3f f1 e7 e5 bf
       -1.7682116 -1.2632428 1.6111363 -1.7961408
0000e0 13 18 e6 3f a2 ac 08 40 fe 16 fc 3f 16 6f 04 40
       1.7976097 2.1355367 1.9694517 2.0692801
0000f0 db c5 27 40 19 18 14 40 ff a5 01 40 0f 04 0b 40
       2.6214511 2.3139708 2.0257566 2.1721227
000100 51 b8 e9 3f 2f de 1e 40 66 a6 18 c0 8b c3 07 c0
       1.8259374 2.482311 -2.3851562 -2.12131
000110 86 5d 19 c0 2a 92 ef bf 11 77 3d c0 e7 2f f9 3e
       -2.3963332 -1.8716481 -2.9603922 0.4866936
000120 ec db 96 bf 89 b6 93 3d 1d 05 00 40 eb 21 5c bf
       -1.1785865 0.0721255 2.000312 -0.85989255
000130 e0 12 b0 3f bb e5 d6 3f e9 33 b9 3f e7 84 b4 3f
       1.375576 1.6788858 1.4468967 1.4103059
000140 58 f4 dc 3f 06 d2 0a 40 f7 2e 18 40 48 89 09 40
       1.7262068 2.1690688 2.3778665 2.149004
000150 d7 e0 fb 3f c4 61 0d 40 4f ff 10 c0 0a fc 0b c0
       1.9677991 2.2090921 -2.2655828 -2.1872582
000160 fa 49 06 c0 2a 59 05 c0 6c 8d 3b 40 86 e9 0c 40
       -2.0982652 -2.0835671 2.9305067 2.2017531
000170 1e cd f3 3f 40 30 05 40 1a ac fb 3f df 91 1a 40
       1.9046972 2.08107 1.9661896 2.4151533
000180 79 a1 14 c0 75 44 07 c0 1c 88 01 c0 87 ee 0a c0
       -2.3223555 -2.1135533 -2.0239325 -2.1708086
000190 40 c9 48 bd 47 ef 90 3e 26 44 65 3e 00 92 00 3d
       -0.049020052 0.28307554 0.22389278 0.031389236
0001a0 dc 0b 0a 3e 94 73 c6 3d 3a 47 8a bd c4 d8 c9 bd
       0.13481086 0.096900135 -0.06751867 -0.09855798
0001b0 d8 30 03 3e b6 13 15 be 9e 32 73 be a5 e6 1d be
       0.12811601 -0.145583 -0.23749778 -0.15420015
0001c0 87 86 75 be 46 d5 66 3e c0 03 f6 3d a4 6c 35 3e
       -0.239771 0.22542295 0.12012434 0.17717224
0001d0 30 30 2a 3d b2 03 59 3e e0 8b 8e 3c b8 97 7c 3d
       0.04154986 0.21192816 0.017400682 0.061668128
0001e0 d0 b1 99 be aa e0 bb bd 4b 51 3b be 36 24 62 3e
       -0.30018473 -0.09173711 -0.1829273 0.22084126
0001f0 00 20 6c ba 3d 83 20 be f6 6d 29 3e 94 ae a5 3d
       -0.0009007454 -0.15675063 0.16545853 0.08089939
000200 00 d8 4b 3b 68 00 ef 3d ba f7 33 be 80 c1 df 3c
       0.0031104088 0.11669999 -0.17574969 0.027313948
000210 c0 54 a5 3d 00 d9 2f 3e ff a5 8e 3e d8 19 f3 3d
       0.080728054 0.17172623 0.2786102 0.11870164
000220 8c 06 6d be f6 7a 35 3e 99 37 6b be 0e 6d 07 3e
       -0.23147029 0.17722687 -0.22970428 0.13225195
000230 80 ab 3d 3b eb 20 06 be 5a de 61 3e e0 22 c3 bd
       0.0028941333 -0.13098495 0.22057477 -0.09528136
000240 c0 d3 22 3c 4e 1f 5b 3e 62 c2 81 be 30 cd 19 3d
       0.00993818 0.2139866 -0.25343615 0.037549198
000250 27 0f 8b 3e 50 4c 5e bd ef 32 9f 3e 98 5f ae 3d
       0.27159998 -0.054271996 0.31093547 0.08514327
000260 a2 26 18 be 0a ed 56 be e1 e5 88 3e 08 9b 62 3d
       -0.14858487 -0.2098886 0.26737884 0.05532363
000270 7c 1d 49 be b3 8f 55 be 80 ca 28 be 10 09 4e 3d
       -0.19640154 -0.20855598 -0.16483498 0.05030161
000280 96 23 2e be 63 e6 42 be 80 90 05 3c 04 6d 9e 3d
       -0.17005762 -0.19033198 0.008152127 0.07735637
000290 ed a4 8a 3e e8 67 33 bd 38 dc a2 3d 5e 51 42 3e
       0.27078953 -0.043800265 0.0795216 0.18976352
0002a0 ac b0 12 3e 38 ac 71 bd 80 cb cd 3b 00 26 41 ba
       0.14325207 -0.05900213 0.0062803626 -0.0007368028
0002b0 c8 6e 63 be a0 20 39 3c 6e 48 5f be c6 3a 10 3e
       -0.22210228 0.011299282 -0.21804973 0.1408492
0002c0 1e 9a 51 be 10 47 bf 3c e0 73 32 bc 36 2e 31 3e
       -0.20468947 0.023349315 -0.010891885 0.17302784
0002d0 3f fb 1e be 38 5a 71 be b5 fa 9c 3e 8c 76 93 3d
       -0.1552553 -0.23569572 0.30660024 0.072003454
0002e0 55 9d 21 be 80 09 5c bc 1d eb 61 be 9b 00 88 3e
       -0.15782674 -0.013429999 -0.22062345 0.26562962
0002f0 1c c8 d1 3d 00 ff 0a 3c 1e e2 5e 3e fd 70 8c 3e
       0.10243246 0.008483648 0.21765944 0.27429953
000300 4e b4 ea bd 5e 21 75 3e 0a e4 52 3e 72 78 b5 bd
       -0.11460172 0.2393851 0.20594802 -0.08860864
000310 38 06 f7 bd da 29 29 3e 3c 3b 90 3d be cb fd bd
       -0.12061733 0.16519871 0.07042548 -0.12392376
000320 f9 90 3c c0 b9 a0 f8 bf 60 4b f6 bf 0e 08 05 c0
       -2.9463484 -1.9424049 -1.9241753 -2.0786166
000330 3e e7 a9 bf 4a e4 f5 bf ed 63 ec 3f 58 a8 e6 3f
       -1.3273695 -1.9210293 1.8467995 1.8020124
000340 35 df df 3f a8 6f e9 3f 93 86 1e 40 34 b8 25 40
       1.7489992 1.82372 2.4769638 2.5893679
000350 ec d8 0f 40 b4 d9 16 40 de e2 04 40 bf 2f f2 3f
       2.2476149 2.3570375 2.0763469 1.8920821
000360 88 75 14 c0 9d 73 0e c0 dd 6d 15 c0 5d a4 0e c0
       -2.3196735 -2.2258065 -2.3348305 -2.228782
000370 37 c7 2e c0 ef dc db bf f6 43 fc bf 26 e8 00 c0
       -2.730909 -1.7176799 -1.970824 -2.0141692
000380 89 3b de bf ac c7 02 c0 68 e1 0c 40 eb 3d f1 3f
       -1.7361919 -2.043437 2.2012577 1.8847021
000390 b3 fa 02 40 f8 ae f1 3f 47 86 25 40 05 ae 20 40
       2.0465515 1.8881521 2.5863206 2.5106213
0003a0 d5 19 28 40 fb 42 04 40 76 78 25 40 20 19 ff 3f
       2.6265767 2.0665882 2.5854774 1.9929543
0003b0 c5 cb 2f c0 b1 86 24 c0 34 6f 0d c0 71 41 1d c0
       -2.746812 -2.570721 -2.2099123 -2.4571192
0003c0 cc 81 35 c0 82 fe 02 c0 68 40 0f c0 37 f4 d7 bf
       -2.8360472 -2.046784 -2.238306 -1.6871403
0003d0 f3 1c bd bf ad 70 02 c0 18 5a df 3f 69 87 ec 3f
       -1.477446 -2.0381272 1.744937 1.8478824
0003e0 e5 bb f0 3f 62 37 14 40 45 f7 22 c0 86 f3 f4 bf
       1.8807341 2.3158803 -2.5463421 -1.9136817
0003f0 bd 39 1d c0 57 e0 1a c0 e0 2c 9c bf bc 7d 24 c0
       -2.456649 -2.4199426 -1.2201195 -2.5701742

lstm.weight_hh_l2 f4 [40, 10]
000000 90 ba 80 bd 01 e6 98 3e 44 97 cd bd 18 ea 86 3d
       -0.06285584 0.2986298 -0.10038617 0.065876186
000010 5c 77 be bd ac c0 24 be a0 88 8f 3d 1a 3d 41 3e
       -0.0930011 -0.16089123 0.07008481 0.18870965
000020 a6 f0 90 be 08 de 50 bd c0 81 05 bd 00 30 e6 39
       -0.283086 -0.050992996 -0.032594442 0.0004390478
000030 e0 4b 32 bd 58 02 90 be d2 fd 66 be a8 4d 53 bd
       -0.04352939 -0.28126788 -0.22557762 -0.05158773
000040 2c b5 2d be 76 c6 79 be 88 a0 60 bd 70 c1 34 3d
       -0.16963643 -0.24392113 -0.054840595 0.04412979
000050 98 9b 4e bd 69 d4 8f 3e 38 71 d6 bd 1a aa 39 3e
       -0.050441355 0.28091744 -0.104708135 0.18131295
000060 dc 91 e4 3d 10 e1 d7 bc 14 64 81 be 49 0f 14 be
       0.11160633 -0.026352435 -0.25271666 -0.14458956
000070 de 30 7e 3e 6b 26 35 be 3f c5 27 be 5c e2 82 be
       0.24823329 -0.17690437 -0.16383837 -0.25563323
000080 ec 4e c9 3d 00 5f 5d bc 88 86 e1 3d 73 c6 82 3e
       0.09829506 -0.013511419 0.11011988 0.2554203
000090 7c 7f 93 be d8 ab 4a 3d a0 1a ba bc 0d b1 09 be
       -0.288082 0.04948029 -0.022717774 -0.13446446
0000a0 58 ab 5a 3d b4 04 be 3d b6 48 0f be ce b3 b0 bd
       0.053386062 0.09278241 -0.13992581 -0.08628045
0000b0 2d c3 03 be 5c e1 87 be 4e 3e 61 3e d0 a7 d9 bc
       -0.12867422 -0.26539123 0.21996424 -0.026569277
0000c0 4c bb 18 3e 8b f0 8d 3e 00 56 77 3c bb 3b 38 be
       0.14915198 0.27722582 0.015096188 -0.17991535
0000d0 90 c1 99 3c a8 76 7c 3d 20 d7 22 3d f4 f2 3e be
       0.018769056 0.061636597 0.03975594 -0.18647367
0000e0 48 00 63 bd a4 90 e9 bd 0c 01 d5 bd f8 9c 23 be
       -0.05542019 -0.11404541 -0.1040059 -0.15977848
0000f0 e7 40 25 be 8a e7 99 be 80 68 c0 bc e6 00 4b be
       -0.1613804 -0.30059463 -0.02348733 -0.19824561
000100 26 00 4c 3e a0 ba 71 3c 78 28 07 bd 20 6c bc 3c
       0.19921932 0.0147539675 -0.03299758 0.023000777
000110 64 a5 03 be 38 2f 73 bd 0d 09 02 be 51 fb 91 3e
       -0.1285606 -0.059371203 -0.12698765 0.28512052
000120 3d cf 94 3e 74 b9 be 3d 00 ac 3f 3d d4 ec c3 3d
       0.2906436 0.09312716 0.04679489 0.09566656
000130 1a 2c ac bd 88 e2 4a be cc 3c 9d be 38 4f 26 3d
       -0.08406849 -0.19812977 -0.30710447 0.040602893
000140 00 ba 19 3e 00 24 4c 3b b2 d2 99 bd fb 44 8b 3e
       0.1501236 0.0031149387 -0.0751089 0.27201065
000150 19 e8 86 3e 98 d1 bd 3d 1e d1 3a 3e ce 59 c0 bd
       0.2634895 0.092684925 0.18243834 -0.09392129
000160 40 8b 9a 3d d0 3d 2e bd 1e c7 7a be 0f 12 4a be
       0.07546091 -0.042539418 -0.2449002 -0.19733451
000170 c7 e5 96 3e 1a 13 21 be 0a 72 4f 3e ee 2f db bd
       0.2947218 -0.15729943 0.20258346 -0.10702501
000180 58 67 33 3d 4e 13 2c 3e fc 0f 57 be 58 cf 80 be
       0.04379973 0.16804239 -0.21002191 -0.2515819
000190 ce d3 19 be a8 80 62 bd b9 c3 27 be 31 ff 9f 3e
       -0.15022203 -0.055298477 -0.16383256 0.31249383
0001a0 e8 05 7f 3d 80 f2 e7 3b 8e 4a 77 be 78 fe 00 3d
       0.062261492 0.007078469 -0.24149534 0.03149268
0001b0 9c a1 41 be 1b 79 2c be c0 c2 0d 3c e0 64 5e be
       -0.18909305 -0.16843073 0.008652389 -0.21718168
0001c0 28 12 6c bd 0e 04 62 be d2 09 5f 3e 19 bd 93 3e
       -0.057634503 -0.22071859 0.2178109 0.28855208
0001d0 40 7e 12 bc 60 95 9e 3c 70 b0 0b 3e 96 45 06 3e
       -0.008941233 0.019358337 0.13641524 0.13112482
0001e0 f7 dd 7a be 68 65 44 bd fc f0 e5 bd d0 d6 1a be
       -0.24498735 -0.04794827 -0.11227605 -0.15121007
0001f0 e5 f3 8b be d0 b8 95 3c 7e 64 76 3e 56 b2 21 3e
       -0.27334514 0.018276602 0.24061772 0.15790686
000200 5a a6 5a 3e 6c 87 d1 3d 62 37 b5 bd 10 6b dd bc
       0.2135252 0.10230908 -0.08848454 -0.02702859
000210 8e 13 50 3e f6 8a 12 be a0 f5 31 3c f9 e7 98 be
       0.2031996 -0.14310822 0.010861784 -0.2986448
000220 80 82 fe 3b 34 b9 01 be fc e0 70 be d8 88 1f bd
       0.0077670217 -0.12668306 -0.23523325 -0.038948864
000230 be 58 16 3e 80 3a a3 3d 60 fd 29 3c 85 0f 45 be
       0.1468229 0.07970142 0.010375351 -0.19244201
000240 c0 0b c3 bb b8 9a 7a bd 80 c8 0e 3d 30 9a 93 3c
       -0.0059523284 -0.061182708 0.03485918 0.018017858
000250 f3 37 9e 3e 28 a0 c2 3d 8a 46 71 3e 2c 4b da 3d
       0.3090206 0.09503204 0.23562065 0.10658869
000260 e3 b5 8a 3e 8d 6e 8e 3e 78 83 a0 3d 9d f0 90 be
       0.27091894 0.2781872 0.07837576 -0.28308573
000270 5e 6d 4c 3e f2 e9 72 3e 00 fd d1 3d 58 54 89 be
       0.19963595 0.23722056 0.10253334 -0.26822162
000280 91 a7 a0 3e 26 7f 4e 3e 22 a2 95 bd de 6d 69 be
       0.31377843 0.20165691 -0.07306315 -0.22795817
000290 98 d9 ed bd e2 20 5f 3e b8 08 3a bd 0f 33 9e 3e
       -0.11613768 0.21789888 -0.04541847 0.3089833
0002a0 30 2a aa 3d 3c 59 a1 bd 00 61 3a bb 9f b0 89 3e
       0.08308828 -0.07878348 -0.0028439164 0.26892564
0002b0 b2 34 74 3e 44 43 a1 3d b8 19 c5 bd a2 66 30 3e
       0.23848227 0.07874158 -0.09624046 0.17226651
0002c0 52 c7 45 3e c0 2d d0 3d b4 19 d3 3d a0 fe cb bc
       0.19314316 0.10164976 0.10307637 -0.024901688
0002d0 a8 c0 4e 3d 28 8d 33 3d 50 f2 4f be c0 76 7e 3d
       0.0504767 0.04383579 -0.20307279 0.062124968
0002e0 80 03 77 3d e0 39 16 bc e5 5e 80 be 3d c6 83 be
       0.060306072 -0.009169072 -0.250724 -0.2573718
0002f0 c0 48 94 be c0 ef 91 3c e0 50 4e be f7 f5 9d 3e
       -0.28961754 0.017814517 -0.20148039 0.3085172
000300 55 18 36 be dd 2e 82 3e 04 ec 31 3e f0 9b e0 3c
       -0.1778272 0.2542638 0.17375189 0.027418107
000310 40 90 f0 3d de b2 3c 3e 24 84 0b 3e fe 02 f9 bd
       0.117462635 0.18427607 0.13624626 -0.12158774
000320 94 52 be 3d 1c 38 e8 bd 53 dd 8a 3e d4 d5 2c be
       0.09293094 -0.11338827 0.27121982 -0.16878444
000330 cd c9 3c be 20 4b 12 bc 7d 45 47 be 10 44 1a bd
       -0.18436356 -0.008929044 -0.19460101 -0.037662566
000340 d6 0b 66 be 86 68 7a 3e 06 6c 8f be 89 55 67 be
       -0.22465453 0.24453935 -0.28012103 -0.22591223
000350 50 54 ae bd 80 ac 23 bd e6 fc 7b 3e 84 a1 ba 3d
       -0.08512175 -0.03995943 0.24608192 0.09112838
000360 2b 5b 7c be 58 70 42 be b2 11 76 be 80 69 ae bd
       -0.24644153 -0.18988168 -0.24030188 -0.08516216
000370 6b 53 85 3e f9 94 56 be c2 47 3d 3e 78 a3 27 3e
       0.26040205 -0.20955266 0.18484405 0.16370952
000380 aa c2 95 be 0c 95 cc 3d 88 2a 69 3d 50 56 1b 3e
       -0.2925008 0.09989366 0.056925327 0.15169644
000390 a2 af 6c 3e 9f 72 1f be 38 e6 43 bd 81 ef 39 be
       0.23113874 -0.15571068 -0.047826976 -0.1815777
0003a0 e0 a3 89 bd f7 cf 8b 3e b2 9f 75 be ec 72 23 3e
       -0.0672071 0.27307102 -0.239867 0.15961808
0003b0 50 33 96 3c 8b 36 88 3e 38 27 ac 3d 90 0d be bd
       0.018335015 0.26604113 0.08405918 -0.092799306
0003c0 50 26 f1 bc 9d 96 8d be ab cb 0d be c8 6c 18 bd
       -0.029437214 -0.2765397 -0.13847224 -0.037213117
0003d0 20 e9 2c bd d0 c4 b7 bc e0 c8 33 3e ae 0e 0d be
       -0.042214513 -0.022432715 0.17557096 -0.13775131
0003e0 40 b5 11 3e 48 1e ef bd e7 01 7c be fb 08 88 3e
       0.14229298 -0.116756976 -0.246101 0.26569352
0003f0 4a a2 76 3e 2d d1 87 3e 45 de 53 be 59 b5 85 3e
       0.24085346 0.26526776 -0.20690258 0.2611492

lstm.bias_ih_l2 f4 [40]
000000 c9 45 12 c0 dd 5a d4 bf 68 7d 1a c0 3d b0 20 40
       -2.2855093 -1.6590229 -2.4139042 2.5107567
000010 d1 2d ec bf 66 77 2f 40 5d f7 16 c0 d2 ce 07 40
       -1.8451482 2.7416625 -2.3588479 2.1219983
000020 78 63 0a c0 41 9e 14 c0 d9 fa 9d 3e 23 58 31 be
       -2.162321 -2.322159 0.30855444 -0.17318778
000030 e8 c1 23 3e ac 15 a8 3d f0 44 19 be 5b a5 8b be
       0.15991938 0.082072586 -0.14967704 -0.27274594
000040 10 53 05 3d ee 4c 6e 3e b0 79 79 3d fc b0 44 be
       0.032549918 0.23271534 0.060907066 -0.19208139
000050 ee a6 91 3f 4c a0 04 c0 57 5d f1 3f 94 4c 24 c0
       1.1379068 -2.0722837 1.885661 -2.567174
000060 11 43 f2 3f c9 b4 2c 40 87 7f d7 bf 8f 3b 30 c0
       1.8926717 2.6985343 -1.6835793 -2.7536352
000070 a8 0f 09 40 0c bc f5 3f 3f 4a f2 bf 0d 71 02 c0
       2.1415806 1.9198012 -1.8928908 -2.03815
000080 a2 8a 13 c0 f6 78 20 40 c9 ac 06 c0 d4 cd 0b 40
       -2.3053365 2.5073829 -2.104296 2.1844378
000090 00 41 09 c0 a7 bc 1c 40 2d c7 04 c0 f8 52 0a c0
       -2.1445923 2.4490144 -2.0746567 -2.161314

lstm.bias_hh_l2 f4 [40]
000000 30 77 fe bf 40 35 02 c0 45 8e 14 c0 61 2a 2e 40
       -1.9880123 -2.0345001 -2.3211834 2.7213366
000010 a1 1d 0a c0 35 aa 1a 40 e5 7d 01 c0 00 b9 08 40
       -2.1580584 2.4166386 -2.023309 2.1362915
000020 d7 6c e9 bf 71 c4 fc bf 10 9e 95 bc 4c a0 a8 3d
       -1.823634 -1.9747449 -0.018263847 0.08233699
000030 68 fc 6e be e3 99 89 be fb 42 90 be b6 02 68 3e
       -0.23338473 -0.2687522 -0.28176102 0.22657284
000040 54 e1 72 be b8 6f a6 3d 3b b1 8b 3e 70 b7 1c 3e
       -0.23718768 0.081267774 0.27283654 0.15304351
000050 b8 63 b6 3f 0d aa 1c c0 02 85 f0 3f 0f cc 25 c0
       1.4249182 -2.447879 1.8790591 -2.5905797
000060 7f 61 f4 3f 82 e5 28 40 05 83 06 c0 7b 00 2c c0
       1.9092253 2.639008 -2.1017468 -2.6875293
000070 e4 fe 00 40 ee 9d fd 3f 78 82 ef bf ba ff 09 c0
       2.0155573 1.9813821 -1.8711691 -2.1562333
000080 a9 6c 01 c0 7c a8 30 40 43 d1 14 c0 87 60 1e 40
       -2.022257 2.7602835 -2.3252723 2.4746416
000090 59 28 f8 bf 5e 33 15 40 c3 ac 05 c0 02 6a 1b c0
       -1.9387313 2.3312602 -2.0886695 -2.4283452

lstm.weight_ih_l3 f4 [40, 10]
000000 ae d6 09 40 1a eb 20 c0 20 69 16 40 36 51 17 40
       2.153728 -2.5143495 2.3501663 2.3643317
000010 63 67 25 40 ee 83 ef bf 74 e9 04 c0 f5 11 13 40
       2.5844352 -1.8712137 -2.0767488 2.297971
000020 c6 eb 07 40 0b da 1f 40 2e e4 16 40 9d 90 f9 bf
       2.1237655 2.4976833 2.357677 -1.9497257
000030 d3 2d 0a 40 e1 75 40 40 02 b1 12 40 a3 c0 49 c0
       2.159047 3.0071948 2.2920537 -3.1523826
000040 c1 a3 13 c0 4d 11 1f 40 a6 6e 16 40 c7 e7 12 40
       -2.3068697 2.485431 2.3505034 2.2953966
000050 5c ed 09 40 d2 cd 01 c0 3c d4 13 40 e3 61 23 40
       2.1551123 -2.0281873 2.3098288 2.5528495
000060 e5 8e f0 3f bf bd 0f c0 ee bd 03 c0 ba 03 01 40
       1.8793608 -2.2459562 -2.0584674 2.0158525
000070 fe 7a 08 40 3a d2 1d 40 2e 0c 82 bf 8d cd 32 c0
       2.1325068 2.4659562 -1.0159967 -2.7937958
000080 c9 47 2e 40 95 ff 39 c0 d9 d4 be 3f 35 e9 4e 40
       2.7231314 -2.9062245 1.4908706 3.2329838
000090 57 74 1b c0 ee a8 10 c0 b1 9d 37 40 39 3d de 3f
       -2.4289758 -2.2603106 2.8689997 1.7362434
0000a0 66 94 1b 40 21 ac 04 c0 d0 b4 1b 40 5d 7a 4c 40
       2.4309325 -2.073006 2.432911 3.1949685
0000b0 cf 24 f1 3f 4e 9a 46 c0 74 b3 12 c0 ad de 23 40
       1.8839358 -3.103168 -2.292203 2.560466
0000c0 53 70 0c 40 4d 4e f0 3f 2b 6d 0c 40 be df f7 bf
       2.1943557 1.8773896 2.194163 -1.9365156
0000d0 e5 bb 12 40 83 29 35 40 05 99 ec 3f 7e 9c 4a c0
       2.2927182 2.8306587 1.8484198 -3.1658015
0000e0 97 ee 07 c0 c0 b7 30 40 8f 51 0f 40 52 fc 17 40
       -2.1239374 2.7612152 2.239353 2.3747754
0000f0 e3 ac 29 3e 76 97 09 40 5e d7 c8 bf 60 90 ff 3f
       0.16569857 2.1498694 -1.5690725 1.9965935
000100 cb aa 87 bf 16 a6 c2 bf 90 75 00 40 8f 05 9a 3f
       -1.0598997 -1.5206935 2.0071754 1.2032946
000110 57 04 18 c0 07 3e e6 bf db 36 15 40 ea 76 2b c0
       -2.375265 -1.7987679 2.331473 -2.679133
000120 8f 66 15 40 0a a9 ac 3f c3 bd 21 40 2a 47 ac bf
       2.3343847 1.3489087 2.5272071 -1.3459218
000130 19 20 04 c0 1e 52 14 40 c8 c8 0f 40 c0 88 0e 40
       -2.064459 2.317512 2.2466297 2.2270966
000140 40 50 fe 3f 4b 62 1b c0 76 0a 1a 40 8c b9 19 40
       1.986824 -2.4278743 2.4068885 2.40195
000150 62 74 1c 40 d5 a3 e7 bf 6b d0 1e c0 c9 f6 0a 40
       2.4446034 -1.8096873 -2.4814708 2.1713126
000160 e1 d5 1a 40 f4 be 22 40 0a 12 09 40 03 6a 01 c0
       2.4193041 2.5429049 2.141726 -2.0220954
000170 f6 b9 13 40 3a 0b 3d 40 61 63 fe 3f 2e 38 45 c0
       2.3082252 2.9538102 1.9874078 -3.081554
000180 6e f8 07 c0 3d 1b 25 40 94 08 1c 40 82 d6 f3 3f
       -2.124538 2.5797875 2.4380236 1.9049838
000190 6c 30 8a 3d 70 0d 80 3d 5a a6 9c be c9 f1 a0 3e
       0.06747517 0.06252563 -0.30595666 0.31434467
0001a0 78 3d 73 3d fc 77 90 bd 48 11 5d 3d 28 34 8f be
       0.059384793 -0.07054135 0.05397156 -0.2796948
0001b0 72 d2 77 3e 22 63 c7 bd 5c 73 08 3e 4c 70 ab 3d
       0.24201372 -0.09735705 0.13325256 0.08371028
0001c0 c0 75 d2 bc 4f bb 94 be 93 28 96 be 82 a7 51 3e
       -0.025690913 -0.29049155 -0.2932783 0.20474055
0001d0 2d ad 60 be e0 25 9d 3c 10 6d 60 bd 9e e7 13 3e
       -0.21941061 0.0191831 -0.05479151 0.14443824
0001e0 02 96 9e be 60 fc 02 3c 68 3b 8b be a0 64 18 be
       -0.30973822 0.007994741 -0.2719376 -0.14882135
0001f0 49 6c 87 3e 66 09 26 be c6 d1 54 be 8e ed 57 be
       0.26449803 -0.16214523 -0.20783147 -0.21086714
000200 4b fd 3d be a0 db 38 3c 02 e5 cb bd d5 e9 99 be
       -0.18553655 0.011282831 -0.09955789 -0.30061212
000210 20 44 23 bd d8 bd 48 3d d0 47 06 3d 2c 5b e8 3d
       -0.03985989 0.049009174 0.03278333 0.11345515
000220 50 f0 21 bd 80 f4 08 3e c2 3c 7c be c0 01 db 3c
       -0.03953582 0.1337452 -0.24632552 0.026734233
000230 52 f5 03 3e 6b 6c 82 3e 00 11 78 3b 4b e2 7a be
       0.12886551 0.2547334 0.003785193 -0.24500386
000240 68 c9 a9 3d c1 7f 2f be 08 07 e5 3d 64 2c 8a bd
       0.08290368 -0.17138578 0.11182982 -0.06746748
000250 fd 80 64 be 50 c6 a0 bc 04 51 78 be 6e f3 e7 bd
       -0.2231483 -0.019625813 -0.24249655 -0.113257274
000260 eb 43 8d 3e 98 89 32 be 48 e2 af 3d 67 2c 95 3e
       0.2759088 -0.174353 0.085880816 0.2913544
000270 30 a9 3a 3d 74 9c a1 be ef d1 9b be 98 93 8c be
       0.045571506 -0.31564677 -0.30433604 -0.27456355
000280 46 3d 4a be 80 8b 49 bb b0 67 9b bd e0 92 52 bc
       -0.19749936 -0.0030753314 -0.07588136 -0.012852401
000290 28 aa 43 bd 30 80 72 3d 24 7f 2c be 58 fe d4 3d
       -0.047769696 0.05920428 -0.16845375 0.10400075
0002a0 5c a4 b2 3d ec b2 2c 3e c1 77 9a 3e 59 60 87 3e
       0.08722755 0.16865128 0.3016949 0.26440695
0002b0 18 84 fd 3d 5b 61 8f 3e 68 e4 98 3d e5 82 91 be
       0.123787105 0.28003964 0.0746544 -0.28420177
0002c0 80 4e 34 3c 63 a4 9e be df db 9d be 9c 50 98 be
       0.011005044 -0.30984792 -0.3083181 -0.29749
0002d0 b0 89 b6 3c 60 05 de bd c0 83 45 be b6 30 42 3e
       0.022282451 -0.10840869 -0.1928854 0.18963894
0002e0 7d ce 8d 3e 21 5e 83 3e 15 a0 8c 3e b0 f4 70 3d
       0.276966 0.25657752 0.27465883 0.058827102
0002f0 d0 2a a2 3d 1a 85 6f 3e 00 a0 85 3c 85 6e 51 be
       0.07918322 0.23390618 0.016311646 -0.20452316
000300 18 ff 2a be de aa a1 be 88 7a 22 bd 42 03 3c be
       -0.16698873 -0.31575674 -0.039667636 -0.18360618
000310 00 6f 94 bb d1 f3 0d be ac 52 93 be a8 1d a2 3d
       -0.004529834 -0.1386254 -0.2877401 0.07915813
000320 ed b0 11 c0 fe 99 11 40 06 dd 08 c0 a6 99 1c c0
       -2.2764237 2.275024 -2.1384902 -2.446878
000330 dc 75 06 c0 f1 64 29 40 5a 77 0e 40 18 8e 1a c0
       -2.1009436 2.646786 2.2260346 -2.4149227
000340 23 ff 12 c0 a5 8d 13 c0 46 0a f6 3f 29 47 d9 bf
       -2.2968223 -2.3055203 1.9221885 -1.6974841
000350 1b 98 e9 3f 38 10 25 40 c1 ca e4 3f 87 31 21 c0
       1.8249544 2.579115 1.7874376 -2.518648
000360 19 e7 cc bf b4 cb 36 40 fc 6f e2 3f 01 c2 d3 3f
       -1.6008025 2.856183 1.7690425 1.654358
000370 29 18 09 c0 6e 60 e8 3f 75 4c 06 c0 77 0a 35 c0
       -2.1420996 1.8154428 -2.0984166 -2.8287637
000380 7e b1 00 c0 c4 73 40 40 5c 27 e6 3f c1 1d 1a c0
       -2.0108333 3.0070658 1.7980762 -2.408066
000390 78 f3 11 c0 89 b9 e7 bf 09 27 17 c0 b2 14 ca 3f
       -2.2804852 -1.8103496 -2.3617575 1.5787566
0003a0 82 71 18 c0 af 12 42 c0 17 89 05 c0 2c a7 3c 40
       -2.381928 -3.0323904 -2.0864923 2.9477034
0003b0 2b f7 19 40 ae 9f 3e c0 f2 55 0c c0 e3 a5 12 c0
       2.405711 -2.978496 -2.1927457 -2.291375
0003c0 11 bf a5 3f aa 6e b3 bf 34 37 f0 3f cd 8d 2a 40
       1.2948934 -1.4018147 1.8766847 2.6649048
0003d0 07 d7 ad 3f f9 4f 1f c0 e7 c6 cd bf 03 85 25 40
       1.3581246 -2.4892561 -1.6076325 2.5862434
0003e0 f2 b3 eb 3f da db 03 40 0d 8e c7 3f 9b a1 9e bf
       1.841429 2.0602937 1.5590225 -1.2393068
0003f0 22 ce e1 3f b9 75 34 40 6b ad a6 3f c0 78 19 c0
       1.7641032 2.8196852 1.3021673 -2.397995
